lstm_stock_prediction.pt (torch, 4157 bytes, 5 tensors)

lstm.weight_ih_l0 f4 [20, 6]
000000 36 49 88 3e ca ef e2 bd 25 6c fd 3d 14 d9 e8 3d
       0.26618356 -0.110808924 0.123741426 0.11369529
000010 1f 30 c6 3e a6 ce 98 be 88 04 7a 3d 0d c6 13 3f
       0.38708588 -0.2984516 0.061039478 0.57724077
000020 43 51 d3 3e 25 ce 66 be a0 8b 7e 3e 7d ff 04 3f
       0.41272935 -0.22539575 0.2485795 0.51952344
000030 ad c2 dc bd 34 28 b6 be 19 88 30 3e 12 4c e4 3e
       -0.10779319 -0.35577548 0.17239417 0.44589287
000040 51 4c b8 3e 4e d0 16 be b9 d8 68 bc 49 c7 fe 3e
       0.35995725 -0.147279 -0.014211827 0.49761418
000050 2c cb 26 bd 65 e5 70 3d aa 4c 9e 3e 76 c2 f2 bd
       -0.040721104 0.058812518 0.30917865 -0.11853497
000060 01 15 9c 3e 74 d3 42 be 45 af 49 3e 8a 0b 19 3f
       0.30484775 -0.19025975 0.19695766 0.5978323
000070 fb e5 95 be 32 64 cb 3e d2 87 cd 3e dd 2e f4 3e
       -0.29277024 0.3972488 0.40142685 0.47692004
000080 61 24 79 be 2a 03 1b bd 8d e8 8b 3d 37 d7 7b 3d
       -0.24330284 -0.037844814 0.06831465 0.06148454
000090 5e 47 84 3e 00 e2 4c 3e 72 89 1c 3f 59 b8 92 3e
       0.258357 0.20008087 0.61147225 0.2865627
0000a0 a2 f5 b7 3e 35 33 0d 3f 5c ea 07 3e e2 79 cd 3d
       0.3592959 0.5515626 0.13272995 0.10033013
0000b0 60 e3 88 3e 1e a5 5e be 4a bd b1 3e 2a d3 84 3c
       0.26735973 -0.21742675 0.3471473 0.016213972
0000c0 01 4a 18 be 08 b9 c2 be 10 a0 0f be f8 1c 2a 3e
       -0.1487198 -0.38031793 -0.14025903 0.16612613
0000d0 38 ce 42 3e d3 7b ea 3e aa 27 3a 39 67 aa 3b be
       0.19023979 0.45797595 0.00017753118 -0.18326722
0000e0 61 2e b1 3e e1 46 97 3d 95 75 2c bd ac ab e1 3d
       0.34605697 0.07386566 -0.042104322 0.11019072
0000f0 10 d6 23 3e a1 21 0b 3f a3 a7 b4 3e ee c3 c1 3e
       0.15999627 0.5434819 0.35284147 0.37844795
000100 84 f4 dd 3e 71 ad 26 bd eb d9 fa bd ee 39 83 3e
       0.43350613 -0.04069275 -0.12248596 0.25630134
000110 e6 5e a0 bc 62 30 f4 3d c4 14 b8 3e 47 1d b2 3d
       -0.019576501 0.11923291 0.35953343 0.086969905
000120 70 a9 6f be be 4c ba be ab 92 bc be 62 7e 2f 3e
       -0.23404479 -0.36386675 -0.3683065 0.17138055
000130 e6 f1 06 bf e6 53 9b 3d 81 65 2f 3e 73 94 63 3e
       -0.5271286 0.07584362 0.17128564 0.22224598
000140 4c f1 be be c3 0e bf bd 93 c1 91 be 91 3c 42 3d
       -0.3729347 -0.093289874 -0.28467998 0.047421042
000150 89 ea ae be e2 b7 68 be 12 d1 8c be c4 69 b1 be
       -0.3416331 -0.22726396 -0.27503258 -0.34651005
000160 be cc 33 3d b0 b0 e0 be 98 ee d9 3e 92 ce e7 3e
       0.04389643 -0.43884802 0.42564845 0.45274788
000170 5a 7e 72 3e b9 88 0f 3f 0c 7e 41 bd 45 a5 3e be
       0.23681012 0.56068 -0.04723935 -0.18617733
000180 b0 cc e6 bd a5 f3 90 be cd 10 0f 3f eb dd fa 3e
       -0.1126951 -0.28310886 0.5588501 0.48997435
000190 af 36 11 3f 7d 20 fc bc d4 95 a6 be d0 92 92 be
       0.56724066 -0.03077721 -0.32536185 -0.28627634
0001a0 a8 7b 76 be d6 ca 1a be ab c6 15 be d0 1b 9d 3e
       -0.24070609 -0.15116438 -0.14626567 0.30685282
0001b0 04 2c ab 3e 3b 03 a6 3e 5a 19 cd 3e 52 ae 89 be
       0.3343202 0.3242434 0.40058404 -0.26890808
0001c0 ce df 50 3c 9c d9 54 be 0f 9d ba bd db ff d6 3e
       0.012748672 -0.20786136 -0.09111988 0.41992077
0001d0 d1 c8 31 bd 99 9a 17 3f 3c 7e 6f be b7 d4 11 3e
       -0.043404404 0.5922027 -0.23387998 0.142413

lstm.weight_hh_l0 f4 [20, 5]
000000 1e 49 03 3f 42 d7 5e 3e c9 59 d7 3e 6c f0 ad be
       0.5128344 0.21761802 0.42060688 -0.3397249
000010 76 f6 81 3d 07 30 0b 3f ba 43 fc 3e 3d 4f fb 3e
       0.06345837 0.5437016 0.4927042 0.49083892
000020 e5 dc c6 be 66 c1 09 bf f7 9c 62 be d9 d2 37 3c
       -0.38840404 -0.5381073 -0.2213019 0.011219704
000030 f4 5c 9a 3e 4d 42 15 be 73 e3 e1 be 30 81 80 be
       0.30149043 -0.14576073 -0.44118842 -0.25098562
000040 3c 11 08 be 8b 36 1f 3f a5 f2 3c bd e4 78 f7 be
       -0.13287824 0.621926 -0.04612984 -0.4833442
000050 80 8e 79 be 93 5c 2c be 2e ac 43 bd da df d4 be
       -0.24370766 -0.1683219 -0.047771625 -0.41577035
000060 6a aa e9 be d7 3a 01 be 3f 7b 28 3f 6c 2b 34 3e
       -0.45637828 -0.12620102 0.6581306 0.17594689
000070 03 ae 74 3e 59 83 34 3e 22 ef 81 3d d8 13 c2 3e
       0.23894505 0.1762823 0.06344439 0.37905765
000080 24 13 00 3f 0c be d6 3d d8 9b f4 3d 8e 2c 97 3e
       0.50029206 0.10485467 0.11943787 0.2952618
000090 70 3c 17 3f 8d e7 a5 3e da b0 37 be 13 d7 e5 be
       0.59076595 0.32403222 -0.17938557 -0.4489065
0000a0 79 72 9d 3e 15 38 71 be 24 a9 36 3d 92 52 91 bc
       0.30751398 -0.2355655 0.0445949 -0.017739568
0000b0 cb 6a 29 be 3e 55 a4 3e 67 23 2b 3d 66 18 24 be
       -0.16544645 0.32096285 0.04178181 -0.16024932
0000c0 6c 55 72 be 38 7d c3 be ef 5b 46 3e 23 f4 d5 3d
       -0.23665398 -0.38181472 0.19371007 0.10446956
0000d0 e4 73 a4 3e f1 09 02 bf 73 66 97 be b4 53 e7 3e
       0.32119668 -0.5079642 -0.2957035 0.45181048
0000e0 e9 25 cf 3e 16 a5 d0 3e e9 5f 32 be 88 b8 ac be
       0.4045861 0.4075095 -0.174194 -0.33734536
0000f0 16 f4 20 3e fa f1 95 be f2 1d 95 bd e9 00 ea be
       0.15718111 -0.29286176 -0.07281102 -0.4570382
000100 8f 4a cd be 7a dd da be 5e c7 da be 57 36 d9 3d
       -0.40095946 -0.42747098 -0.4273023 0.10606068
000110 33 32 05 3c 2c 8c d1 3e 1a 0b 31 3e e4 c4 d6 be
       0.008129644 0.40927255 0.17289391 -0.4194709
000120 21 0d 78 bd 98 bf a5 3e d9 05 31 3e fb 67 09 be
       -0.060559396 0.32372737 0.17287387 -0.13418572
000130 ce 2d 27 3f 10 0a 0b 3f 68 10 52 bd ba a7 c6 be
       0.6530427 0.5431223 -0.051285177 -0.3879984
000140 88 94 85 3e 79 ae 8c bd 38 bd 15 3f e9 87 28 be
       0.26089883 -0.068692155 0.5849185 -0.16458096
000150 af d5 1f bf cb 9d 92 3e 0b d5 10 be 13 fe d5 3e
       -0.6243543 0.2863601 -0.1414377 0.41795406
000160 d0 54 37 be 8e 71 fc be 04 64 79 3c e6 ab 4a 3e
       -0.17903447 -0.49305385 0.0152215995 0.19792137
000170 3f 71 62 3e 85 88 53 3e fd 65 7a 3e 6b bf 50 3e
       0.22113512 0.20657547 0.24452968 0.2038552
000180 29 d2 95 3d 91 2b 05 be 6a a6 22 3e fb 6d 7c 3e
       0.073154755 -0.130049 0.15883794 0.24651329

lstm.bias_ih_l0 f4 [20]
000000 0f 34 1e bc 0e 5b f0 3e 16 14 0d 3d de 9b c2 3d
       -0.009655966 0.4694447 0.034442984 0.095023856
000010 25 5a 4d 3e c5 5d 1b 3e 34 b9 4c be 6e f7 37 be
       0.20053919 0.15172489 -0.19992524 -0.1796548
000020 3f 20 0c 3f 04 0e 27 3e 2f 2a 81 3e bb 12 16 be
       0.54736704 0.1631394 0.25227496 -0.14655583
000030 73 72 01 3e eb fb 5c be ca 34 ab be 03 4a 75 be
       0.12641315 -0.21580474 -0.33438712 -0.23954014
000040 0d c2 04 bd 4c f5 64 be 72 bd 96 be 16 20 f6 bd
       -0.032411624 -0.22359198 -0.2944141 -0.12017839

lstm.bias_hh_l0 f4 [20]
000000 93 3f 8b bd 65 e2 0c 3f 47 31 18 3d a1 4f eb bc
       -0.06799235 0.5503295 0.03715637 -0.028724493
000010 87 db 82 be 4b 93 77 3e c1 a7 db 3e bc 18 74 be
       -0.2555811 0.24177282 0.42901424 -0.2383756
000020 73 48 cc 3e 86 b4 d8 bd fa 79 d0 3e e9 3b f5 3e
       0.39899024 -0.10581307 0.4071806 0.4789727
000030 5c 31 95 3e 91 53 ed 3d ce e7 f7 be 8f 40 0a 3f
       0.2913922 0.11588205 -0.4841904 0.5400476
000040 c6 e4 21 be 2e cb 3e be 98 4e b2 3d 90 78 0b 3f
       -0.15809926 -0.18632194 0.08706397 0.5448084

fc.weight f4 [1, 5]
000000 26 65 f6 3e ed 48 d0 3d df 0c 01 3e f5 ee f6 be
       0.48124045 0.101701595 0.12602566 -0.48229185
000010 47 68 ba be
       -0.36407682
